model.pkl (torch_old, 97589 bytes, 5 tensors)

embeddings.weight f4 [49, 100]
00000000: 2c1a 19bf c80c 973f cf80 0e3f 48be a8bd
00000010: ddd5 8dbf 33f9 633f 4743 093f 8047 b3be
00000020: bce6 c8bf e5e2 a1be 6d32 c73e 4346 a63e
00000030: acae 99ba 38c3 f6be c831 d8bc f914 58be
00000040: 946d de3f d2a0 31bb 519e 613e 7765 963e
00000050: e3ca efbf a298 84bf 088a b83f 00e3 95bf
00000060: 3d76 953e 891f 6ebf 80b7 2d3f 2fa5 7cbf
00000070: 20c7 92be 00c5 9f3e 507e 75bf 3a62 a5be
00000080: a610 0a40 1540 4f3f 60b2 bc3f 9da6 9ebe
00000090: 4e48 723f af70 703d e74a c53e 8a41 ffbf
000000a0: 0c1d 4c3f c34d 863f a69f 853f 0bb5 21bf
000000b0: a5ff 813f b543 cc3d f761 e33d 604e cabf
000000c0: 06aa 07be 77a1 cfbf a0d6 30bd bf15 a3bf
000000d0: 138c 9f3d 8759 dfbe a67e de3e 07d8 ad3f
000000e0: fbff 88be 22d1 19bf 85cf 483f 7cfd a23f
000000f0: 9012 2e3f 948b d6be 1c66 493f fb70 4fbf
00000100: 83a3 bc3f daab 24be 51a8 dbbe 73db 13bf
00000110: 6f99 8e3e e632 c93e b27f 0fbf 8762 acbf
00000120: b62f 27bf 8cf5 06bf 9379 79bf 26d1 90bd
00000130: 22d2 ad3d c5c0 a4bf 00d2 f03e 20f5 123f
00000140: ab1e febe 4ce2 753e 5e26 a03e e799 0f3f
00000150: 3f66 eb3e 01fb 113f 55f2 083e aa88 603c
00000160: 9f93 74be 30eb 83be 4f9e 0fbf 0f98 33be
00000170: 93cc 093f 3cf9 a2bf 4e86 99be 4c87 d1bd
00000180: bca8 8b3e 6d9b 093e 3bc5 543e 181d 64bf
00000190: 65e1 903f c8c9 1040 ee8d 19c0 59a3 bd3f
000001a0: 4486 b73e 57d8 f5be 0aee 3a3f 8515 6ebf
000001b0: cd21 8f3f 3c6c 06bf 2e00 153e 3a49 f23e
000001c0: 4c5e 13bf 6d23 523f 017c f7bf 6818 413d
000001d0: f6d5 ae3e fe04 fa3f f9a3 05bf d69f 31be
000001e0: 4643 8cbf ecfe 5c3f 3025 933c a427 043f
000001f0: 70dc 163e 2712 523f bfb4 a83c 49ce 3bbf
00000200: 61d1 50bf e495 da3f 96a3 abbe 59ce a93f
00000210: 17b9 813e 8305 a43d 1018 96bf 6cc4 c3bf
00000220: 5b50 9abf 0bd7 d23e 9361 5ebf 9453 0740
00000230: 04ec 92be aa4a 8fbf 2abd 5cbf eeed 0740
00000240: ceec 92bf 27a4 2040 f540 78bf 0ae8 cb3f
00000250: 4901 f8bf 6f0b 82bf fe04 02be f034 a23f
00000260: effc 773e 457c 473f 54bf 6e3e 4718 843e
00000270: 1b0d 81bf 7dde 7dbf dc74 97be da4d 173e
00000280: 652e 87bf 1319 933d 34af e2be 62d1 b83e
00000290: 68f1 d6be 150f abbf 8c09 8b3f 9e23 37bf
000002a0: f533 063f a443 973e 5865 8d3f 2400 af3f
000002b0: f17b 193f 4748 87bf 26dd 2bbe b2f9 4e3f
000002c0: 1294 e7bb 31d6 3abf 952a 7e3e dca1 83be
000002d0: dfcd d83f 40bb 2a3f ca63 10bf 0c23 41be
000002e0: 9446 8ebe a193 a63f 46da 5dbe 8f7a 61be
000002f0: 8d93 f6bf 1e50 0bbf 42db 1c3f be6b 81bd
00000300: f2ef 9bbf 7a78 91bf 36ca a1bf 41af 7d3f
00000310: 1022 00bf a566 3940 0925 ed3f 0136 773f
00000320: 37ad cbbf 90cd 8c3e 5611 12bf 832e a0bf
00000330: 4a60 8a3d e55d 87be 2101 aabf 78ee 8f3f
00000340: 5d18 aa3f 89e8 36bd e933 4b3f 7845 0bbe
00000350: 83b1 abbe 547c cd3e 3a22 cb3e 531d 0b3f
00000360: 2e07 a3bf 6eb9 7dbf 0a53 04bf 7a53 80bf
00000370: 4b1f bdbd 3ed8 8dbf 123c b4bf 8b95 863f
00000380: f401 173e 4ce1 92bd a812 5f3e 2c95 cdbf
00000390: bee8 da3e 264f 883f 0cd0 033f 3ddb 9a3e
000003a0: 1a15 6cbe 8905 80bf ab6c f8bf 9f8e 91bf
000003b0: a362 d93f 008d 0b3f 3466 493e e198 313f
000003c0: 3213 b63e dd6f 45bf 2f5c 14bf 7bc5 893f
000003d0: 0d5e 1740 7a62 323f 0122 f73e ab3b c8bd
000003e0: e7cd 95be fd53 10bf a05e b9bf 1159 b03d
000003f0: af30 aabe f24a 713f 2d64 6a3f 8a9b b2bf
-0.5980556 1.1800776 0.55665296 -0.08239418 -1.1080891 0.8905212 0.5361828 -0.35015488
-1.5695415 -0.3161842 0.3890566 0.3247548 -0.001172503 -0.48195815 -0.026390925 -0.2110175
1.737719 -0.0027103913 0.22033049 0.29374287 -1.8733791 -1.035908 1.4417124 -1.17099
0.2919177 -0.9301687 0.67858124 -0.9868955 -0.28667545 0.31204987 -0.9589586 -0.32301503
2.1572661 0.80957156 1.4741936 -0.3098649 0.9464158 0.058701213 0.38533708 -1.9941876
0.7973182 1.0492481 1.0439346 -0.63166875 1.0156142 0.099738516 0.1110267 -1.5805168
-0.13248453 -1.622115 -0.043173432 -1.2741011 0.07790389 -0.4362299 0.43456 1.3581551
-0.26757798 -0.60084736 0.7844165 1.2733607 0.67997074 -0.41903365 0.7867143 -0.8103177
1.47374 -0.16081181 -0.42901853 -0.5775673 0.27851436 0.39296645 -0.5605422 -1.3467568
-0.65307176 -0.52718425 -0.9745113 -0.07071142 0.08487345 -1.2871329 0.47035217 0.5740528
-0.49632773 0.24012107 0.31279272 0.5609421 0.45976445 0.57023627 0.13373692 0.013704458
-0.23884438 -0.2576537 -0.56100935 -0.17538475 0.5382778 -1.273231 -0.2998528 -0.10230884
0.27277172 0.13438196 0.20778362 -0.89106894 1.1318785 2.2623158 -2.3992877 1.4815475
0.35844624 -0.48016617 0.7301947 -0.93001586 1.118219 -0.525089 0.1455085 0.47321492
-0.5756576 0.82085305 -1.9334718 0.047142416 0.34147614 1.9532773 -0.5220333 -0.17346129
-1.095803 0.8632648 0.017962068 0.51622987 0.14732528 0.8205895 0.020593999 -0.7336164
-0.81569487 1.7076993 -0.33523244 1.3266097 0.25336525 0.08008864 -1.1726093 -1.5294318
-1.2055773 0.4117969 -0.86867636 2.1144762 -0.2869569 -1.1194661 -0.8622614 2.123897
-1.1478517 2.510019 -0.96974117 1.5930188 -1.9375392 -1.0159739 -0.12697217 1.2672405
0.2421758 0.77923995 0.23315173 0.25799772 -1.0082124 -0.99167615 -0.29581344 0.14775792
-1.0561033 0.07182517 -0.44274294 0.36097246 -0.41981053 -1.3363978 1.0862288 -0.7153872
0.5242303 0.29543793 1.1046553 1.3671918 0.59954745 -1.0568932 -0.1678358 0.80849755
-0.007067212 -0.7298308 0.24820931 -0.25709426 1.6937827 0.6669197 -0.56402266 -0.18861026
-0.27788222 1.3013803 -0.21665296 -0.22019409 -1.9263779 -0.54419124 0.6127206 -0.06319378
-1.21826 -1.1364892 -1.2639835 0.9909554 -0.50051975 2.89689 1.8526927 0.9656678
-1.5912236 0.27500582 -0.570577 -1.2514194 0.06756647 -0.26438823 -1.3281595 1.124465
1.3288685 -0.044655357 0.79376084 -0.13600719 -0.33533868 0.40133917 0.3967455 0.5434162
-1.2736566 -0.9911107 -0.5168921 -1.0025475 -0.09234484 -1.1081617 -1.4080832 1.0514387
0.14746839 -0.07171878 0.2178446 -1.6061149 0.42755693 1.0649154 0.5148933 0.3024539
-0.23054925 -1.0001689 -1.9408163 -1.137165 1.6983227 0.54512024 0.19667894 0.693739
0.3556152 -0.77123815 -0.5795316 1.0763391 2.3651154 0.69681513 0.4826813 -0.09777006
-0.29258654 -0.56378156 -1.4482002 0.08610738 -0.33240268 0.9425498 0.91559106 -1.3953717

linear1.weight f4 [128, 100]
00000000: c213 9dbd a4ce b83c 84b0 17bd 097e 173d
00000010: 2966 edbc 029d 88bd 4c61 4f3d 9d39 ce3d
00000020: 9c89 29bd 7376 a73c 57a8 ab3d 14e1 debd
00000030: 1bc4 873d 3b3e 8fbd 41c9 c2bd f127 2fbd
00000040: 33f2 04bd ace3 eb3c e183 b23d d588 e0ba
00000050: 5f05 98bc af52 6a3c 3c07 1f3d 59a0 913d
00000060: 5670 a83c 8e25 143c 1a6f 3a3c bb45 34bd
00000070: ff5a 8bbd b356 a2bc 1c00 b33d 2521 b8bd
00000080: 0c90 80bd 3d86 14bc 1703 583d 5e3e fd3b
00000090: 4d9f d0bd 0a12 bdbd 1902 c2bd 5975 483d
000000a0: a294 c8bd 3c71 73bd fa57 28bd f97f b13c
000000b0: 796b 21bd 8270 d63a 02f2 bdbc f15e 68bd
000000c0: 112b 4c3d 29b3 323d 9fd2 f13d 2ced b0bc
000000d0: 5d36 aa3c 12e4 f1ba 8b71 c7bc 6541 9fbd
000000e0: 9431 ccbd 9f15 74bd f5f4 06be 9d4b aa3d
000000f0: f4bd f8bd 43e8 efbd 60df 6ebd 1a2b a2bd
00000100: 79d4 473d 448f 23bd 4e22 04bc 0af0 9e3b
00000110: f0c6 9dbd a5eb 763d c8ee 88bd ea24 0bbd
00000120: cf0a 8f3d 6ceb 65bc 9b49 cebd d496 d03b
00000130: 1786 95bd 0618 52bd 3c78 03bd e2fe e8bc
00000140: 38c4 723c 0705 22bd 3aa2 bf3d 0d19 e53c
00000150: 4d5e 96bd 1c66 c43d 04b4 abbc 2b51 83bd
00000160: da0b 9abd 3860 a9bd 331c 34bd 661b bc3d
00000170: 6796 eebd 511f 9c3d 0741 623b 9830 fd3d
00000180: 0b05 173c 84c2 a2bd 0c00 503d 1528 7b3d
00000190: f73c d13d 7029 b93d 3fc7 463d 4b52 a93c
000001a0: c4c2 08bd e43c d3bd af12 c6bd 3553 7cbd
000001b0: 9e49 553d 8811 78bc 6ab0 383d 4d0c 813d
000001c0: 4849 80bc c58d f6bc 1219 433d 4d65 79bd
000001d0: 5632 4b3d 700a afbc 63ab 57bd c4f4 82bd
000001e0: 447b d33b 17b2 303a 4ed7 a73d 6634 9ebd
000001f0: c44b 363d 8663 273c 5237 623c 32ba 593d
00000200: 97dc 6c3d 9202 db3d 6af3 5bbd 3a68 3ebd
00000210: 1b43 92bd 0465 9c3d 3437 3a3d 874a de3d
00000220: 2814 b53d f1eb 993d e700 e83d 61ed 933d
00000230: e6c7 dbbd 4ac6 123d 4d7c 96bd 3d64 5b3d
00000240: 8693 acbd 2a2f 87bd 46cc 23bb b316 96bc
00000250: dab6 a7bd 9dfd bebd 7ffd e3bd 6397 acbd
00000260: bf9f 4bbd 6a27 c43b 8448 6f3c fdda 8e3d
00000270: e24d 233d d105 de3d ef7b ac3d e4d6 9d3d
00000280: da9a 80bd f5a6 9a3d be3f 453d ee77 9abd
00000290: a263 c93d b9fe d73d d1a2 69bd 497d be3d
000002a0: a9c6 983d a92e 2abd 26d6 c33d 641d bb3c
000002b0: 1d23 a43d 77b0 353c 167e 743d 90d5 a13d
000002c0: 4fb7 d43c d815 8fbd 4d76 7abd 68ef 66bd
000002d0: c5e9 043e d274 233d 05c6 ef3d f6f1 1abd
000002e0: 0f84 0bbd b211 77bd 572b 9d3c 9253 c33c
000002f0: ab42 1fbb 9b03 70ba 308f 21bd 624f 05be
00000300: d71a 5c3d 1193 1f3c 011d 95bd 7bd5 17bb
00000310: c2ad 9a3d d237 0b3d 2cd7 11bd abcb c43d
00000320: f29f a2bd 8afd 2f3d df0c 943a 201c 4f3d
00000330: 2572 e5bb 4710 4f3c 7dfc d43d 82e0 193c
00000340: 0e6c 93bd 8f24 01bd b031 d23d ca21 9bbd
00000350: a364 b3bd 329a 7a3c 7ba2 bdbc 91ba f53c
00000360: d7f4 453b 8a75 debd 5dae 63bd 8a4e 47bd
00000370: a291 95bd a8b1 053d bbe5 9abd 5860 90bd
00000380: f5a3 883d d5a4 adbd 5977 edbc f864 0d3c
00000390: c531 ae3d 81cb 96bd 03f1 df3c 9e06 6f3d
000003a0: 8696 8d3c 2b02 583d 2aa3 3bbd a0e1 013d
000003b0: b669 b93d 247b b73c 708a a1ba f8cf 8e3c
000003c0: 70d3 93bd b728 b7bc bf12 e3bd c63d 873d
000003d0: ed5f 94bd 89fb 1d3d 79d5 843d aed8 acbd
000003e0: 9c6c 5cbd 54c6 833d 5cd4 a23d f7b5 4ebd
000003f0: 7243 afbc a376 ccbd e028 e33d 06a3 233d
-0.07669784 0.022559471 -0.037033573 0.03698543 -0.028979378 -0.06670572 0.0506299 0.100695826
-0.041391 0.020442223 0.08381718 -0.10882774 0.06629201 -0.069942914 -0.095110424 -0.0427627
-0.03245754 0.028795086 0.0871656 -0.0017130623 -0.018557249 0.01430194 0.03882526 0.07110662
0.020561378 0.009042157 0.011379028 -0.044011813 -0.068044655 -0.019816732 0.08740255 -0.08990697
-0.06277475 -0.009065208 0.05273732 0.007728382 -0.10186634 -0.09231956 -0.09473056 0.048940036
-0.097939745 -0.05943416 -0.041099526 0.021667467 -0.039409135 0.0016360434 -0.023186687 -0.05673117
0.04984576 0.04362789 0.11807751 -0.021597467 0.020777876 -0.0018454811 -0.024346134 -0.07776145
-0.09970394 -0.059590932 -0.13179381 0.08315203 -0.12145606 -0.11714222 -0.058318496 -0.07918377
0.048786614 -0.03993155 -0.0080648195 0.004850392 -0.0770396 0.060283322 -0.06686169 -0.03397075
0.069844835 -0.01403318 -0.10072633 0.0063656364 -0.07300966 -0.05129244 -0.032097086 -0.02844185
0.01481729 -0.039555576 0.09357114 0.027966047 -0.07342205 0.09589788 -0.020959862 -0.06411966
-0.07521792 -0.082703054 -0.043972205 0.09184913 -0.11649781 0.07623161 0.0034523623 0.12362784
0.009217511 -0.07947257 0.050781295 0.061317522 0.10216706 0.09041107 0.04852986 0.020669123
-0.033388868 -0.10314348 -0.09671532 -0.06160279 0.05207216 -0.0151408985 0.045090117 0.06301174
-0.015659943 -0.030096898 0.04763133 -0.060887624 0.04960855 -0.021367282 -0.05265368 -0.063943416
0.0064539034 0.00067404046 0.08195363 -0.07724838 0.04450585 0.010216599 0.013807135 0.053156085
0.05782756 0.106938496 -0.053698935 -0.046486117 -0.071417056 0.07636455 0.045462802 0.10854059
0.08841735 0.075157054 0.11328297 0.07223011 -0.10731487 0.035833634 -0.07347927 0.05356239
-0.08426575 -0.06600793 -0.0024993583 -0.01832137 -0.08189173 -0.09325717 -0.11132335 -0.08427312
-0.049712893 0.005986144 0.014604691 0.069753624 0.039869197 0.10840953 0.08422076 0.07707003
-0.062795356 0.07551376 0.048156492 -0.07542406 0.098334566 0.10546631 -0.05704004 0.0930124
0.074597664 -0.041548405 0.0956233 0.022841163 0.0801451 0.011089436 0.059690557 0.07902062
0.025966315 -0.06986588 -0.061147977 -0.05638066 0.12979801 0.03990633 0.11707691 -0.03782841
-0.034061488 -0.06031961 0.019185705 0.02384356 -0.0024301212 -0.00091558107 -0.039443195 -0.13018563
0.053736534 0.009739653 -0.07280923 -0.0023168016 0.07552673 0.03398878 -0.035605595 0.09609159
-0.079406634 0.042966403 0.001129534 0.05056393 -0.0070021325 0.012638158 0.10399721 0.009391906
-0.07198344 -0.031529006 0.102633834 -0.07574804 -0.08759429 0.015295552 -0.023148766 0.029996188
0.003020575 -0.108622625 -0.055586208 -0.048658885 -0.07303168 0.03264013 -0.07563349 -0.07049626
0.06671897 -0.08478705 -0.028987573 0.00863003 0.085055865 -0.07363034 0.027336603 0.05835592
0.01728369 0.052736443 -0.045809902 0.031709313 0.09053366 0.022397585 -0.0012324583 0.017433152
-0.07218063 -0.022358282 -0.1108756 0.06603579 -0.07244859 0.03856996 0.06486029 -0.08439766
-0.053814515 0.064343125 0.079506606 -0.050466504 -0.021394465 -0.09983566 0.11091781 0.039950393

linear1.bias f4 [128]
00000000: df9c 723d 01b5 b8bd 94ac 3cbd 33d9 da3c
00000010: d7f3 c5bd 08b5 493c 8ad6 e3ba d6f2 11bc
00000020: f4c2 883d 53fe 9c3c 2251 31bd e631 83bd
00000030: 26ec 923d 869a c73d 6da0 6bbd 0a0a c2ba
00000040: 79f1 03bc 0a89 c6bd c8f3 9b3d eded c63d
00000050: a151 993d cd26 3abd c541 9cbc dc5f 113d
00000060: c461 493d a7dc 3ebd 9425 823d 32b3 4e3d
00000070: f9a5 c33d ed65 443d 637d 5a3d c112 343d
00000080: e219 9ebd 7258 39bd fd05 d6bc 974a 9abd
00000090: 8cc9 15bd 5c05 623c b86b b6bd 82f7 f3bc
000000a0: 383e 0dbd f120 223d d33a 783c 375f 08bb
000000b0: 46e2 c3bd 6de3 03bd 9be9 d43c 2259 ddbc
000000c0: 3b36 c73d e031 d33b e2bc 333d c16b 8d3d
000000d0: 4714 8b3b d025 8dbd 91a1 8f3b 7a4f 853d
000000e0: 67e0 ae3d c77b 84bc cd84 72bc 8b18 8a3d
000000f0: 2e29 7e3c 837a 143c ef9f 5a3d 4b98 ddbb
00000100: 6ac4 a23c 51cb 3fbd 9ea1 2dbd fed9 c93d
00000110: d07d 28bd 8a27 96bd d518 0ebc 82d9 cabb
00000120: 8b18 813a 06a3 04bc 920d 363d d746 0abd
00000130: 9461 ee3b 0348 30bd dc49 1dbd f2a3 8cbd
00000140: 9e13 a63c f584 7b3c 0ed8 ed3a 9a15 aebd
00000150: 99d0 9c3c 2bb1 95bd d38c e73c 5970 adbb
00000160: 5e5e a5bd ba15 01bd 420d 9fbc 3f6c 18bc
00000170: 8e2e 7ebd 34d8 853d 180b 8bbc 7538 abbd
00000180: aa1d d6bc 9124 adbd efff b53c a87d b53d
00000190: 148d a43d c445 4ebd 6401 133d bd2b c13c
000001a0: 9709 8e3d 4092 9a3d 61fe a63d afb2 953d
000001b0: 01ab 2ebd 2e2d aebd e967 873d f6e9 ba3d
000001c0: c50d 81bd 967c be3c 74e2 473d 5fa5 5fbd
000001d0: 29ce c9bc 7b45 96bd a5a4 6abd 51b8 4e3d
000001e0: 6a9d c73d 7886 ddbc d178 a0bd 7808 cebd
000001f0: d330 21bd 35b0 7c3d 2d17 033d 13ec 7c3b
0.059231635 -0.09018899 -0.04606302 0.026714897 -0.096656494 0.012311228 -0.0017382663 -0.008907994
0.06677809 0.01916424 -0.043290265 -0.06406002 0.07173948 0.0974627 -0.05752604 -0.0014804017
-0.008053177 -0.09694107 0.07614857 0.097133495 0.074862726 -0.04544716 -0.01907433 0.03549181
0.049165502 -0.04659715 0.06354824 0.050463863 0.09553141 0.047948766 0.053342234 0.043963198
-0.077197805 -0.045250364 -0.026125902 -0.07533758 -0.036569163 0.013795223 -0.089072645 -0.029781107
-0.034483165 0.039582197 0.015150744 -0.0020808706 -0.095646426 -0.032199312 0.025990298 -0.02702004
0.097271405 0.0064451545 0.043881305 0.06905318 0.0042443606 -0.06891978 0.004383274 0.065092996
0.08538895 -0.016172303 -0.01480217 0.067429624 0.015512748 0.009062412 0.05337518 -0.0067625395
0.019869048 -0.046824757 -0.04239046 0.09856032 -0.04113561 -0.0733176 -0.008672913 -0.0061904797
0.0009849233 -0.008095508 0.044446535 -0.033758964 0.007274816 -0.043037426 -0.038400516 -0.068672076
0.020273026 0.015351524 0.0018146054 -0.08500214 0.019142436 -0.07309183 0.028265392 -0.005292934
-0.0807464 -0.03151486 -0.019415502 -0.009303152 -0.062056117 0.06535378 -0.016973063 -0.08360378
-0.026137192 -0.0845424 0.022216765 0.08861858 0.08034721 -0.050359502 0.035889998 0.023580426
0.06935423 0.07547426 0.08153988 0.07309472 -0.04264355 -0.08504711 0.06611616 0.09126656
-0.063014545 0.023252767 0.048799947 -0.05460107 -0.024634438 -0.07337471 -0.057285924 0.050468747
0.09746821 -0.027041659 -0.07835544 -0.10060209 -0.039353203 0.06169148 0.032004524 0.003859286

linear2.weight f4 [49, 128]
00000000: 5b3f 9c3c bf9e aebc a9e2 87bc 9e47 07bd
00000010: 6be9 9ebd 33e4 85bd 7fee 663c c948 bdbd
00000020: a4a8 4f3e 2ee7 733d c2b1 66bd 2b99 dcbd
00000030: 523e af3c 1fc1 8fbd f1cf 65bc 91fd 8abd
00000040: e0ee 143d f8e6 733d 0756 6b3d f767 c1bd
00000050: 2516 313d c781 ae3d ed4e 4d3d 3d92 4abd
00000060: 6a54 12bc 005b 10bd 2329 3bbc a016 bd3d
00000070: 63ff 4ebd f4df 0c3d e50f 0e3d 79c4 47bc
00000080: a688 babd 7895 b33d 5158 e53d 1e79 c23c
00000090: 6f7f 943d 453e fbbc e2c9 41bd 7f9b 4ebd
000000a0: 0b86 adbd d682 a7bd 1ede 3b3d 9dad cfbc
000000b0: 7fac 0f3e b833 04bb f363 a7bd 3e77 85bd
000000c0: f4af 963c f5e7 6b3d 97a3 9e3b 6995 c03c
000000d0: 394d cdbc e676 613d 3a44 8fbd 0d4d 533c
000000e0: 8697 9bbd e66e ee3c 8ec2 a6bc 6f36 8f3d
000000f0: 2bae 8fbd 9c58 e43d 5f8a 453d e3b4 073d
00000100: 0de4 82bd 60d2 963d 99aa 0d3b 245a b93d
00000110: 1f4d 99bd 5a7d 583c e35c 24bd c0e7 013d
00000120: 79a1 1a3d d577 fd3c 38e5 853d 31c3 8b3d
00000130: 9614 363d 0482 9ebd c942 8a3d 5776 be3c
00000140: 508a 04bd b25e 80bd fea3 d33b 886e 8dbd
00000150: e3ca 2a3c f982 ee3b da70 103d 189e 60bd
00000160: 59bc 6b3d 7c37 073d 1cb2 a13c 54bb c53c
00000170: cd69 bcbd dd14 92bd e7b1 d73d a385 553d
00000180: 0f68 cd3d efd9 863d 636f 06bd 677c 5abb
00000190: 8e80 22bd 3824 0dbd 42ce 853c 8501 c83c
000001a0: ccc5 b7bd ca4e 643d 49a8 5fbd 38da 70bd
000001b0: cf51 8bbd 7c4a 62bd 70d5 b3bd 7900 833d
000001c0: 59f3 7a3d bd88 0dbd ded4 9bbd d6d9 8c3d
000001d0: e870 0fbd f412 70bd be67 863d 0b3b 9a3d
000001e0: 8d44 cd3c 2b9a ce3d f674 7cbc 0d9c 50bd
000001f0: 9a93 323d d251 7fbd d494 a3bd 5c6e 823d
00000200: d6b4 dabd 7f44 2c3c 9f90 89bb f237 15bd
00000210: 3115 9b3c e8c3 24bd 399f 013d d68b 68bb
00000220: 8170 c6bd f8a9 cb3d 304c 5bbd dede 83bd
00000230: 3eb8 8e3d 4fb1 4c3d 6c81 073d e1ca 783c
00000240: 852d f53c 43ec 71bd 7173 a9bd 0b2e cabb
00000250: f7d8 b73d cc8a d5bd 9d33 c03d 1e15 673d
00000260: 6709 833d 3001 883d 3558 8f3c ac7b 9a3d
00000270: 5fed 94bb 63e3 3fbc 8433 3dbd d01d e63c
00000280: e831 51bd dec9 7a3b a4ed eb3c ea83 96bd
00000290: f35a 8a3d f19d 8e3d 341d 0abd bdc9 cfbd
000002a0: 91bc 3e3d 9a8a 17bc b3c2 be3c e87e dcbd
000002b0: 430e 893c 4c14 b83d 0167 94bd 46f2 8d3c
000002c0: 61c1 5c3d ef94 13bd 4b66 a8bd 1324 8cbd
000002d0: 19a3 a7bd 3fe5 acbc e46b 553c 4eea 3c3d
000002e0: c447 923d a9bd 403e 79f2 daba 65a2 91bd
000002f0: dc60 9b3d ced8 27bd e35d a8bd 7277 b4bd
00000300: 1110 833d 9c56 833d 71cf 7ebd 511a 90bd
00000310: ff60 8c3d d9f4 593b 8f86 373c 2bce a13d
00000320: c491 6b3d 10a7 ed3b b0f8 053d fc31 b5bc
00000330: 19d4 b6bd 3567 23bd 08f1 053e f191 02bd
00000340: 2da3 843d 3ab6 8ebd 02d7 9d3d 416b cbbd
00000350: 34a3 c03c 548e 1e3b c36b 8ebd 9be7 863d
00000360: a590 b63d 1f9e ed3c 7ffe 7bbd c656 3a3d
00000370: 1288 c83d 7350 143d 1fb8 febc 8981 f83c
00000380: de1d 103d ff3c 62bd d114 7fbd 4744 2abd
00000390: 150f c53c d27b 4f3d c589 fabb 01e2 95bd
000003a0: 9287 cabd 63c3 d83c cb1c 803d e947 733c
000003b0: 4c04 85bd 694f 953c ae78 ad3c acb2 cfbd
000003c0: be87 ddbc 8a5a b33d b49e 163b 34c1 babd
000003d0: c605 3bbc 6795 5e3d 8469 81bd 041b ac3d
000003e0: 9d49 9f3d 848c 55bd 4e39 febc c931 9a3d
000003f0: f4ff 69bc 994e bc3d cb5e a83d fbf5 a2bd
0.019073179 -0.02131593 -0.016587572 -0.033027284 -0.07759365 -0.06537666 0.014094948 -0.09242398
0.20279175 0.059546642 -0.056321867 -0.10771402 0.021392021 -0.07019257 -0.014026628 -0.06786645
0.03636062 0.05954644 0.05745509 -0.09443658 0.04323401 0.08520847 0.050124098 -0.04945587
-0.008931259 -0.035243034 -0.011423382 0.09232831 -0.050536525 0.034393266 0.034683127 -0.012192839
-0.09108095 0.08768743 0.11198486 0.023739394 0.072508685 -0.03066934 -0.04731167 -0.05044126
-0.08472832 -0.08179252 0.045866124 -0.02535134 0.14030646 -0.0020172428 -0.08173361 -0.06516884
0.018394448 0.05759426 0.004841279 0.023508744 -0.025061237 0.05504503 -0.06995435 0.012896788
-0.0759726 0.029105615 -0.020356443 0.06992804 -0.07015642 0.111497134 0.048227664 0.03313149
-0.063911535 0.073643446 0.0021616577 0.09050396 -0.07485413 0.01321348 -0.040127646 0.031715155
0.03775165 0.03094093 0.06537861 0.06824339 0.044453226 -0.07739642 0.067510195 0.023249788
-0.032358468 -0.06268062 0.0064587584 -0.06905848 0.0104243485 0.0072787968 0.035263874 -0.05483827
0.05755267 0.0330119 0.01973825 0.024137177 -0.091998674 -0.071328856 0.10531979 0.0521294
0.10029613 0.06584536 -0.03282107 -0.003333831 -0.03967338 -0.03445837 0.016333703 0.024414787
-0.08973274 0.0557392 -0.05460385 -0.05880186 -0.06802713 -0.055246815 -0.08780944 0.063965745
0.06126723 -0.034554232 -0.076089606 0.068774864 -0.035019785 -0.058611825 0.06562756 0.07530793
0.025057102 0.10087999 -0.015408745 -0.05093007 0.043597795 -0.06233389 -0.07987371 0.06368706
-0.10679023 0.010514378 -0.0041981484 -0.036430307 0.018931003 -0.040225893 0.031645987 -0.003548374
-0.09689427 0.09944528 -0.053539455 -0.06438993 0.06968735 0.049973782 0.03308241 0.015185089
0.029928932 -0.059063207 -0.08273972 -0.0061700395 0.0897693 -0.10426864 0.093848445 0.056416623
0.06398278 0.066408515 0.017498115 0.0754312 -0.0045448984 -0.011711928 -0.046191707 0.028090388
-0.051072985 0.0038267295 0.02879984 -0.07349379 0.067556284 0.06963719 -0.033719257 -0.101459004
0.04656655 -0.009249354 0.0232862 -0.10766393 0.016730433 0.08988246 -0.07246209 0.017327439
0.053895358 -0.036030706 -0.08222636 -0.06842818 -0.08185405 -0.021105407 0.013026211 0.046121888
0.071425945 0.1882235 -0.0016704343 -0.071110524 0.07586834 -0.040978245 -0.082210325 -0.08811845
0.06399549 0.06413004 -0.06220955 -0.070362695 0.06854438 0.0033257513 0.011201515 0.079006515
0.05751206 0.0072525814 0.03270787 -0.022118561 -0.08927173 -0.039893348 0.13080227 -0.03187746
0.06476436 -0.06968351 0.07707025 -0.099325664 0.023515321 0.002419372 -0.06954148 0.06587144
0.089143075 0.029006062 -0.061522003 0.04549291 0.09791578 0.036209535 -0.031093655 0.030335205
0.035184734 -0.05523395 -0.06227571 -0.04156902 0.024055043 0.050655194 -0.007645818 -0.073184974
-0.09889139 0.026460355 0.06255492 0.014848688 -0.0649496 0.018226342 0.021175709 -0.10141501
-0.027042266 0.08757503 0.0022982778 -0.09118882 -0.011414951 0.0543417 -0.06318954 0.0840359
0.077777125 -0.05213596 -0.031033184 0.07529027 -0.014282215 0.09194679 0.08221205 -0.07957073

linear2.bias f4 [49]
00000000: c357 a5bd 12ae 333d a6d9 433d c981 383d
00000010: c3ac 9bbd a902 5b3c 1e4e 813d 9e71 093d
00000020: c404 853d 4724 953d 67fd dc3c 5713 95bd
00000030: c7fd 583d 1293 bcbc 047d e53c b569 d63c
00000040: c5e4 593c 6db7 f43b 2fdf 8cbd 50c4 18bd
00000050: 7112 11bd d1c3 263d 467d 93bd 3890 693d
00000060: d321 b6bb 9212 71bd 378e 46bc 6921 20bc
00000070: 534c 41bd 8dad 2abd a575 af3d f1eb cfbc
00000080: c6e6 94bb ca3f 473c 6210 6dbc 6138 a8bd
00000090: ee39 b43c 4ee5 f93c 4feb 733d 36cc 21bd
000000a0: e5b4 67bd 4d9e 813d cf94 e3bb 71d1 d5bb
000000b0: fea9 08bd 9e89 51bb 3983 013c 1db0 01bd
000000c0: 272c 81bd
-0.0807338 0.04386718 0.047814988 0.045045648 -0.07601311 0.013367333 0.06313728 0.03355562
0.064950496 0.0728231 0.0269763 -0.072790794 0.052976396 -0.023019347 0.028013714 0.026173452
0.013299172 0.007468155 -0.068785064 -0.037296593 -0.035417978 0.04071409 -0.072016284 0.057022303
-0.0055582314 -0.0588556 -0.012118868 -0.009773591 -0.04719193 -0.041669417 0.08567361 -0.02538106
-0.004544112 0.012161205 -0.014469238 -0.082138784 0.02200028 0.030504849 0.05955058 -0.03950139
-0.056569 0.063290216 -0.0069452296 -0.0065252115 -0.033365242 -0.0031972895 0.007904821 -0.031662095
-0.063072495
